data/best_model.pt (torch, 24034 bytes, 9 tensors)

card_embedding.weight f4 [287, 16]
000000 32 49 94 c1 f3 c6 19 40 2a 89 c2 3f e6 66 1c c1
       -18.53574 2.402768 1.5198109 -9.775122
000010 55 31 f2 3d 34 4f 00 40 93 aa 1c c1 6b 4a 68 3f
       0.118258156 2.0048342 -9.791644 0.9073855
000020 db 44 82 3f 4b 1c 02 3d a0 88 f6 3e b7 50 42 3f
       1.0177263 0.031765264 0.48151112 0.7590441
000030 dc ef 2a 3c 7f 43 fc 3f 56 ad 93 3d 62 74 89 c1
       0.0104331635 1.9708098 0.072107956 -17.181828
000040 6c 7b 9a bf c8 c3 33 bf 44 8d 9d bf 68 a1 4e 3f
       -1.2068915 -0.70220613 -1.2308736 0.80715036
000050 2e 38 aa bf 82 46 71 bf fa 06 20 3f 0e cb 03 40
       -1.3298395 -0.9424821 0.62510645 2.0592685
000060 4b 1f 52 3f 7d 55 f4 bf 6d 8e 37 3f d9 1a 2d c0
       0.82079 -1.9088589 0.717017 -2.7047637
000070 62 5a 1c 40 2e 91 1c 40 8a 9e d4 bf 6d 4a 84 bf
       2.4430165 2.446361 -1.6610882 -1.0335213
000080 3c 95 98 3f af 00 98 3b 64 4b 9d 3f 4b cb dd 3f
       1.1920543 0.0046387534 1.2288632 1.7327665
000090 6c f6 4c 3e 20 50 80 c0 b1 59 c8 3e 62 e6 f2 3e
       0.20015877 -4.009781 0.3913093 0.47441393
0000a0 fc 0c 9d 3f 53 c8 8a 3f 1c ea ff bf f7 a8 a5 bb
       1.2269588 1.0842384 -1.999332 -0.0050555426
0000b0 36 c4 b1 3e 4c ed d4 3e 59 ac f4 bf 1a af 34 be
       0.3472001 0.41587293 -1.9115096 -0.17644921
0000c0 9f d6 d4 3d 02 63 55 3f 6e a8 d1 bf 56 b3 63 bb
       0.10392498 0.833542 -1.6379526 -0.0034744344
0000d0 57 f3 fa 3f 85 df c1 3e f3 7b 22 c0 ff 21 d8 3e
       1.9605511 0.37865844 -2.5388153 0.42213437
0000e0 8b 0c a7 3f 8f 95 5e 3f c8 dd 23 3f 46 d4 ec 3f
       1.3050703 0.8694696 0.64010286 1.8502281
0000f0 cd 19 1e 40 36 ae bc 3f 5f d5 05 40 34 78 a5 bf
       2.4703248 1.4740665 2.0911481 -1.2927308
000100 52 01 32 c0 d1 0e ca 3f 33 cf 00 bf d5 97 11 3f
       -2.7813306 1.5785772 -0.5031616 0.568723
000110 38 f7 a5 3f 56 76 a3 bf d0 80 b0 bf 18 9f 03 40
       1.296607 -1.2770488 -1.378931 2.0565853
000120 21 80 b4 3f 0c 3a 83 bf 45 9e d9 3f 0e 41 fa 3f
       1.4101602 -1.025209 1.7001425 1.9551103
000130 ee 2c ab 3f 8e f2 19 3f d3 b8 c2 3f 1b 86 d5 bf
       1.3373086 0.60135734 1.5212654 -1.6681551
000140 b9 56 3f bf bf c7 a8 3e b4 11 e0 3f a4 93 72 3f
       -0.74741703 0.32964894 1.7505403 0.9475653
000150 71 1b 09 3f 2d ca d7 bf 62 87 ae bf 74 40 c1 3f
       0.535575 -1.6858574 -1.3635066 1.5097795
000160 32 10 d1 bd e4 b8 0b 3e 93 9d 13 40 ef ac 8b 3e
       -0.10208167 0.13644749 2.3064926 0.27280375
000170 04 1c 26 3e 45 f7 85 be 33 02 8b 3f 19 e9 03 c0
       0.16221625 -0.26165214 1.0860046 -2.0611022
000180 6b 1a d8 be 6e 2b 2b be 03 05 8e bf 2e 10 33 3f
       -0.42207655 -0.16715786 -1.109528 0.69946563
000190 2c f7 57 3f 02 26 f2 bf 76 62 90 bf 56 c3 59 40
       0.8436153 -1.8917849 -1.1280048 3.4025474
0001a0 d8 eb 7d 3f 3b 96 b7 3f ae ce 3a bf 97 18 8e 3f
       0.99187994 1.4342722 -0.7297162 1.1101254
0001b0 3f cb 87 3f 84 69 f1 3f 94 bd a7 3d 96 00 4a 3f
       1.0608901 1.8860326 0.08190456 0.78907144
0001c0 f6 05 51 bf 3e 8d 56 bf f1 91 d5 3f ec 26 96 3f
       -0.8164972 -0.8380927 1.6685163 1.1730628
0001d0 f6 bd ef bd 99 3f 5d 3f 6e 0e 8d 3f ba 72 bd 3f
       -0.11706154 0.8642517 1.1020029 1.4800637
0001e0 02 2d a1 3d 84 d2 0b 3f 87 ea 7f 3f 06 32 9f 3e
       0.07869913 0.54618096 0.99967235 0.31092852
0001f0 a8 df c4 bf a2 18 0b c0 d5 f9 96 3d 03 3b 8a 3f
       -1.5380754 -2.1733785 0.073718704 1.0799259
000200 55 13 b9 3f c5 07 da bf dc 7b 39 3e 4c 11 8d 3e
       1.4459025 -1.7033621 0.18113655 0.2755226
000210 73 26 3b 3e 0b f3 01 bf ea ee 74 3f 6d 14 d6 3e
       0.18276386 -0.5076148 0.95677054 0.4181246
000220 19 83 00 40 70 e2 46 3f 80 a5 01 3f 9a bd 85 3f
       2.0080016 0.77689266 0.5064316 1.0448487
000230 4b 06 57 bf cc fd 5d c0 00 4b ad be b6 17 9f 3d
       -0.8399398 -3.4686155 -0.33846283 0.077681944
000240 a1 ac bc 3f 9a b9 e3 bd 8b ea d4 3e 02 9d af bd
       1.4740182 -0.11119385 0.41585192 -0.08574869
000250 1c 0a 56 be ac 97 66 bf f5 e3 30 3f 7b fb a6 bf
       -0.20902294 -0.9007518 0.69097835 -1.3045496
000260 7d 77 8e 3f 9d b9 29 40 f5 99 05 3f c1 9c 80 be
       1.1130215 2.651954 0.52188045 -0.25119594
000270 1a 74 c8 bf b9 3c 0a bc d3 fe 11 3f 1a 50 b7 3f
       -1.5660431 -0.008437329 0.57029456 1.432132
000280 fc c1 f6 3f 21 c8 9e 3d ce aa e4 3f e7 e8 4c 3e
       1.9277949 0.07753015 1.7864625 0.2001072
000290 b1 f2 76 bf 78 d7 6a c0 22 5a de 3f b4 48 70 3f
       -0.9646407 -3.6694012 1.7371256 0.93860936
0002a0 ba 7b 55 3e 50 a1 65 bf 62 1a a5 be 31 d5 3f be
       0.20847979 -0.8969927 -0.3224669 -0.1873367
0002b0 93 95 a5 3f 00 a7 ab 3f 4e cb 43 c0 70 e6 b7 bc
       1.2936271 1.3410339 -3.0592837 -0.022448748
0002c0 8a 2d b9 bf 66 16 ae 3f 87 94 fb be 84 4f 7b bd
       -1.4467022 1.3600585 -0.49136755 -0.06135513
0002d0 a6 bd 1b 3f 04 55 6c bf 01 23 7c be 8d e0 5a 40
       0.60836256 -0.92317224 -0.24622728 3.4199555
0002e0 1c bf 8f 3f b4 7e 0a 40 76 98 b2 be 57 02 58 bd
       1.1230197 2.1639833 -0.34881943 -0.052736606
0002f0 b6 02 76 3f 07 78 1d 40 bb 34 c1 3f 79 c8 52 bf
       0.96097887 2.460451 1.5094217 -0.82337147
000300 66 a7 c4 be 4c 1e b6 3f 60 c8 51 bd 98 41 9b 3f
       -0.38408965 1.4227996 -0.051216483 1.2129393
000310 0c 06 ad 3f ff d1 e6 bf 28 91 30 bf ab 46 08 40
       1.351747 -1.8032836 -0.6897149 2.1293132
000320 56 f4 bb 3f e7 47 21 3f 26 33 1c 40 08 f6 de 3f
       1.468394 0.6300034 2.4406219 1.7418833
000330 dd 4d 89 3f e2 08 a0 3f 9e 72 90 3f cc 77 e0 bf
       1.0726887 1.2502711 1.1284978 -1.7536559
000340 f4 6c bd 3f 0d ba c3 be bb 52 07 3e e4 52 ae bf
       1.4798875 -0.38227883 0.13215153 -1.3619046
000350 25 38 aa 3f eb 9d 4c 3e 87 5b b7 be 32 c5 e3 3e
       1.3298384 0.19982116 -0.35812017 0.44486386
000360 68 3b 0c 40 25 9a e6 3e b3 e1 ec 3e a7 cd a6 3e
       2.1911259 0.45039478 0.46265945 0.32578775
000370 24 5f 19 c0 bb 26 de bd 8f bc 0b 3f 43 08 e7 be
       -2.396432 -0.10847231 0.5458459 -0.4512349
000380 e1 75 82 3e fc 8e 40 3f b9 28 d4 bf bf a0 09 bf
       0.2548056 0.75218177 -1.6574928 -0.53760904
000390 a1 41 87 bd cb 1b 5a 3f 3f ec c4 3f 66 bf 1b 3f
       -0.066043146 0.8519866 1.5384597 0.60838926
0003a0 3d ee 3b 40 da d9 df 3f 88 e5 f9 3e 3f b1 6e 3d
       2.936416 1.7488358 0.4880793 0.058274504
0003b0 2c 8e 44 bf 0b a0 99 3e 32 4b 1d 3f 1e c8 11 bf
       -0.7677944 0.30004916 0.61442864 -0.5694598
0003c0 c7 32 93 bf cf 44 c3 be a6 c0 f3 bf dc a5 9a be
       -1.1499871 -0.38138434 -1.9043167 -0.30204666
0003d0 79 75 84 bf ea ec f0 3e 74 8d 0c c0 d0 3f 0c be
       -1.034835 0.4705575 -2.1961336 -0.13696218
0003e0 c9 66 fe 3f 64 75 be 3f 2e 41 9c 3f 5c 2e 74 3f
       1.9875118 1.4879575 1.2207391 0.9538324
0003f0 30 cf af 3f ac e6 0c 40 1a be c4 3f 97 bc 12 c0
       1.3735104 2.201579 1.5370514 -2.2927606

win_embedding.weight f4 [16, 1]
000000 00 34 c4 bc b8 31 0b 3e 96 c6 87 3d 0c 0e 29 be
       -0.023950577 0.13593185 0.06629674 -0.16509265
000010 a2 ce e3 bb d5 fc 0b be af 68 e1 3d a8 bd c3 bd
       -0.006952123 -0.13670667 0.11006295 -0.095576584
000020 1f 3e ff bd 22 b5 11 3e 07 d0 a1 be 36 7e 69 be
       -0.124630205 0.14229253 -0.31604025 -0.22802052
000030 de e5 10 be 6b cf d4 bd af 83 9e bc 80 f4 e5 3c
       -0.14150187 -0.10391124 -0.019349901 0.028070688

win_embedding.bias f4 [16]
000000 70 7c 0b bf 0e 79 7a bf 8b 5b 33 40 3d e1 00 bf
       -0.5448675 -0.97840965 2.8024623 -0.50343686
000010 22 66 cb bc 46 04 f3 be 54 0c 05 40 44 70 98 be
       -0.024828974 -0.47464198 2.0788774 -0.29773152
000020 05 2a c8 be b4 54 84 bf 09 bb 74 bf fa 8b 32 bf
       -0.39094558 -1.0338349 -0.95597893 -0.6974484
000030 4e 6c 13 40 95 1c 4a 3f fb f7 ce 3e 54 31 0e 3f
       2.3034854 0.7894986 0.4042357 0.5554402

rank_embedding.weight f4 [16, 1]
000000 78 d0 90 3f 52 ea 1a bf e9 3c 46 bf de 8e 73 bf
       1.131362 -0.60513794 -0.7743669 -0.95139873
000010 14 b2 4c 3e a4 cc ef 3d 5e de 72 bf e8 13 88 be
       0.19989806 0.11708954 -0.94870555 -0.26577687
000020 80 a7 96 be b8 cd 04 3f 97 3b 50 bf f8 dd 6e 3e
       -0.29424667 0.518764 -0.81340927 0.23326862
000030 88 4c 73 bf a0 e3 dd be 97 09 d5 be ae 3f 39 bf
       -0.9503865 -0.43337727 -0.4160888 -0.7236279

rank_embedding.bias f4 [16]
000000 c8 3a 15 40 80 f0 5e 3e 2b 4c 40 3f 40 8d 93 bd
       2.3317127 0.21771431 0.75116223 -0.07204676
000010 d6 cb 9a bf b9 55 d2 3f 50 0e 8b bd e2 80 72 bf
       -1.2093456 1.643241 -0.06789839 -0.9472791
000020 dc cb ce be 21 7c 21 3f 1f d8 4e 3f 55 b4 e5 3f
       -0.40389907 0.6308003 0.80798525 1.7945658
000030 a6 83 6a 3f 3a 7b 40 bf 23 10 d4 3e 52 4d 1c 3f
       0.9160713 -0.7518803 0.4141856 0.6105548

query_proj.weight f4 [8, 16]
000000 68 f7 6c bb 72 8c 88 be 5b c8 25 3d 09 44 82 bd
       -0.0036158208 -0.2666965 0.040474277 -0.06360633
000010 72 65 07 bf 52 3b 94 3e ca 78 73 3d 4a 2a e4 3e
       -0.5288917 0.28951508 0.059441365 0.44563514
000020 3f 96 01 3f 10 b7 01 3f 85 bb 93 be 5b 86 d4 3e
       0.5061988 0.50669956 -0.28854004 0.41508755
000030 d1 58 16 3d 15 75 9a be c6 a1 b7 3d 9b 41 3d 3e
       0.036705796 -0.30167452 0.08966403 0.18482058
000040 83 5d 72 3e 5a bc 0d bf 0f 39 a3 be e2 d5 29 bf
       0.23668484 -0.55365527 -0.3187947 -0.66341984
000050 1f 31 86 be 92 54 c3 bd 33 e9 bc 3e ac c6 ee 3d
       -0.2620935 -0.09537615 0.36896667 0.116589874
000060 c4 f3 b0 be 81 14 26 3f 2c 9f 88 bd be 96 26 be
       -0.34560978 0.64875036 -0.066709846 -0.16268441
000070 69 24 1e 3f 09 7c de 3d 14 74 04 be 36 99 5a 3e
       0.6177431 0.108635016 -0.12934905 0.21347508
000080 35 f0 64 bd 79 84 ed 3d 8c 44 ea bd c8 95 b1 3d
       -0.05589314 0.11597533 -0.114388555 0.08671147
000090 84 e1 d6 3e 7e ee a1 be 22 4a 75 3e 07 22 ee be
       0.4196893 -0.31627268 0.2395406 -0.46510336
0000a0 32 48 68 bd da 04 d5 bc a3 c6 85 bb 1a 4b 22 be
       -0.056709476 -0.02600329 -0.004082517 -0.15848961
0000b0 8d fb 27 3e ea 07 42 be 84 d8 fa 3c 2d 16 0c be
       0.16404553 -0.18948331 0.03062082 -0.13680334
0000c0 1d 77 54 bd b6 9f 06 3e 58 d5 f9 3d 05 bf e5 bd
       -0.051871408 0.13146862 0.12198895 -0.11218075
0000d0 e8 3d ec be 0f b5 8d bb 5b 6a 1c 3e 52 ca a5 3d
       -0.4614098 -0.0043245624 0.15274946 0.0809523
0000e0 aa 8b 84 3d 66 0e a8 3e 19 e3 1e bf 1f d4 13 3f
       0.06471951 0.32823485 -0.62065274 0.57745546
0000f0 5e ae 5a bd 72 f3 1f be 1b 09 ea bd 3e 3b 93 be
       -0.053388946 -0.15620211 -0.11427518 -0.28756136
000100 a6 7c 01 3f 99 ec a8 be ad d1 47 3d 0a ea e3 3e
       0.50580823 -0.3299301 0.048783947 0.44514495
000110 f1 29 65 3e 19 70 3d be bc 90 a2 3e c9 85 6a be
       0.2237928 -0.18499793 0.3175105 -0.22902597
000120 58 63 ab 3d 1e 33 5d be 99 9b b6 bd 9f 5f 43 3d
       0.08368558 -0.21601531 -0.08916397 0.047698613
000130 3d 1d 22 3e ee 52 3b be b5 3c b5 3e bc 48 8b 3e
       0.15831466 -0.18293354 0.35397878 0.2720393
000140 c2 5c 05 bd 26 1b fb bd dd 6b 04 3f 5c 0e 56 3e
       -0.032559164 -0.122610375 0.51727086 0.20903915
000150 5a 6c 1c bd 70 2c ff 3e b6 6d 67 be d5 33 d4 bb
       -0.03818927 0.4983859 -0.22600445 -0.0064759054
000160 ff 87 ed 3e 22 4b 28 be 8d e5 33 be 96 62 96 3d
       0.4639282 -0.16434911 -0.17568035 0.073430225
000170 a3 f8 00 bf dc 51 96 be 44 3f 84 3d 5b 83 80 3d
       -0.5037939 -0.2935933 0.064573795 0.06275054
000180 59 a4 ed bd a7 52 15 3f 3c 6d 19 be 1c 59 ef 3d
       -0.116036125 0.5832924 -0.14983076 0.11686918
000190 35 aa 8f 3d 43 1d 8e be ca aa b8 be 9e 95 86 be
       0.07014886 -0.277567 -0.36067802 -0.26286024
0001a0 27 9f 15 bf 94 0d 98 be 96 3e 26 3e e2 d1 cc be
       -0.5844597 -0.2969786 0.16234812 -0.40003878
0001b0 a3 e8 3d be b9 74 80 3e 22 7c 0a bf cd 01 df 3c
       -0.18545775 0.25089052 -0.5409566 0.027222538
0001c0 46 ea 19 be df 30 04 3e 7d 93 90 3e c3 24 57 bd
       -0.15030774 0.12909268 0.28237525 -0.052525293
0001d0 0c 15 6c 3e 2c 08 1b 3e 47 af e0 be c0 50 9c 3e
       0.23054904 0.15139836 -0.43883726 0.30530357
0001e0 4c b5 2e 3e 9a f3 0d 3e 60 a0 e0 3e e2 3b 53 3e
       0.17061347 0.13862458 0.43872356 0.20628312
0001f0 90 ab 75 bc a8 02 b1 3e 2a 94 f7 3d e7 f1 ba bd
       -0.014994517 0.3457234 0.12088807 -0.091281705

key_proj.weight f4 [8, 16]
000000 d2 7e de bd 4e 0e 10 be d0 78 60 3d f6 44 60 be
       -0.10864033 -0.14067957 0.054802716 -0.21901307
000010 70 ec eb be e4 10 63 3e a7 38 0f 3d 37 99 e3 3e
       -0.46078825 0.22174412 0.034966137 0.4445283
000020 d3 68 6d 3f 6c 17 a1 3d 82 52 ea 3d 17 6a 93 3d
       0.92738074 0.078657955 0.11441518 0.071979694
000030 4b f3 bb 3e c5 ef c4 be d0 02 c4 bd f1 44 0b be
       0.36709055 -0.3846418 -0.09570849 -0.13600518
000040 1c 17 c1 be 0c 54 ba be 66 43 2e 3d aa 40 1c bf
       -0.37712944 -0.36392248 0.042544745 -0.6103617
000050 48 51 fe be e3 39 8a 3f fa 80 95 be 85 84 38 be
       -0.49671388 1.0798916 -0.29199964 -0.18019302
000060 ac da e1 bd 61 8b 26 3f a4 c9 2a 3f 2c e3 25 bb
       -0.110280365 0.65056425 0.6671393 -0.0025312407
000070 b8 84 e1 3c 19 70 ab be 3f 29 75 3e a5 33 17 3e
       0.027529106 -0.3348396 0.23941515 0.14765795
000080 d6 47 5b be 7b 0e 4b 3d da d9 03 be 60 56 e8 3c
       -0.21414122 0.049574357 -0.12876073 0.0283615
000090 f7 35 3a 3e 0b 69 8d be 03 46 9e bb 22 10 c1 be
       0.18184648 -0.27619204 -0.0048301234 -0.3770762
0000a0 63 75 27 be 3a 15 fe bd 33 8e 0f be 3b 53 f6 3d
       -0.16353373 -0.124063924 -0.14019088 0.12027594
0000b0 11 d2 86 bd f3 d4 4a 3e 58 8d 94 3d fc d0 cf 3d
       -0.06583036 0.19807796 0.07253522 0.101472825
0000c0 eb 0e 71 be 34 0c 67 3e 34 3a 2c 3d 74 53 87 3c
       -0.23540847 0.22563249 0.042047694 0.016519286
0000d0 f8 6b 3c bf 3b b5 11 be fb 79 91 3b d6 c9 94 3e
       -0.7360225 -0.1422929 0.00443959 0.2906024
0000e0 0f 68 85 3d 48 e3 a3 bc 4b f4 09 3e f9 bd 28 3f
       0.06513988 -0.020005837 0.13472097 0.65914875
0000f0 1e 8e 6b 3e a8 6c c6 be d1 e5 04 be 9e 5f 84 be
       0.23003432 -0.38754773 -0.12978293 -0.258542
000100 ef c4 ce 3e 6a f1 b9 3d 4b 79 27 be fa 3f 84 3d
       0.40384623 0.09079249 -0.16354863 0.06457515
000110 8b 53 a3 3e 86 9d ba bd e0 f5 6e 3d 08 3c 0b be
       0.31899676 -0.091120765 0.058339953 -0.13597119
000120 51 c2 06 3f c6 30 57 be 90 25 89 be 0e 66 24 3e
       0.52640253 -0.210147 -0.2678647 0.16054556
000130 c7 1a dd bd 2c f5 a5 3d 59 ff 64 bd 80 fc 96 bd
       -0.10796123 0.081034034 -0.05590758 -0.07372379
000140 d5 d5 9e 3e 1a cd 85 3e 32 6e 5f 3e fc 31 88 bd
       0.31022516 0.26133043 0.2181938 -0.06650159
000150 db 9a 5f 3d d4 3a a8 be bb 69 17 be d0 c8 de 3e
       0.05459104 -0.32857382 -0.14786427 0.43512583
000160 39 a7 1f 3f d8 75 dd be 59 e6 df be 70 28 80 bd
       0.62364537 -0.4325397 -0.4373043 -0.06257713
000170 fa 8c d3 bd cc 52 5d 3d ce e1 7f be b6 82 c8 be
       -0.103296235 0.05403404 -0.24988481 -0.39162225
000180 7d c6 b2 bd 15 ee 79 3e d4 73 b8 bd c0 3a fd 3e
       -0.08729265 0.24407227 -0.090064675 0.49458885
000190 bb 3e 76 3e d2 14 1f be 43 ff bd bd af de 98 3d
       0.24047367 -0.15535286 -0.09277203 0.074643485
0001a0 a0 ff 65 bf da 48 3e 3e 2d 9a 08 3e 15 6d 3f bd
       -0.8984318 0.18582478 0.13340063 -0.046734888
0001b0 e5 d0 99 be a7 76 b6 3e a5 0a 3e 3d 55 d1 46 3e
       -0.30042186 0.356374 0.04639687 0.19415791
0001c0 eb 2c c2 bd 86 bc 0f 3d 46 d8 84 3e 09 9f 0f be
       -0.09481224 0.0350919 0.25946254 -0.14025511
0001d0 8c 62 8c 3e fc dd 44 be 39 f8 c6 3e 5c d4 81 be
       0.27418935 -0.19225305 0.38861254 -0.2535733
0001e0 ca 46 3e 3e ad 6e 69 3c ce 45 fd 3c 4e 69 81 3d
       0.18581691 0.014247579 0.030917075 0.063189134
0001f0 67 ad 27 3e ff 0f 1a 3e 81 21 ef 3d 79 9c 28 3e
       0.16374741 0.15045165 0.11676312 0.1646594

value_proj.weight f4 [8, 16]
000000 3e 3e 61 bf f3 97 c2 be 7f 11 42 3d 6d b9 2a be
       -0.879856 -0.38006553 0.047379967 -0.16672297
000010 11 a8 95 bf 32 8a 87 bf c3 a3 a5 3d 7d d5 03 3f
       -1.1691915 -1.0589049 0.08087876 0.5149763
000020 c7 2b a1 bf 11 07 67 bf dc c5 a1 be e8 d5 91 bf
       -1.2591485 -0.9024516 -0.31596267 -1.1393404
000030 7d 87 da 3e 79 7e 09 be cd 3f f2 be 1d a7 5b bd
       0.42681494 -0.13427152 -0.473143 -0.05362617
000040 b2 34 75 be d6 02 07 bf b5 cc 1b 3f 7b 18 36 3f
       -0.23945883 -0.527387 0.60859233 0.71131104
000050 e6 0e a3 3e c9 ee 5a bd 74 37 db be 7c d4 92 3f
       0.31847304 -0.05345038 -0.42815745 1.1471095
000060 7f 8b 69 3f d4 54 64 be d9 4a 26 3f 71 51 e0 bf
       0.9122848 -0.22297984 0.6495796 -1.7524854
000070 52 9f 3f bc 79 0a 2f 3e 9c 44 29 3d 44 46 94 3e
       -0.0116957 0.17093839 0.041325197 0.28959858
000080 00 9d 04 bf a2 94 50 3e 31 2b 68 3f ad 53 2d bf
       -0.51802063 0.20369199 0.90690905 -0.67705804
000090 96 0a e3 be da e7 31 bf 8c bb 94 be 88 44 87 3f
       -0.44344014 -0.694944 -0.29049337 1.0567789
0000a0 44 c7 43 be ee 34 61 bf f7 63 5b be d7 12 81 bf
       -0.19118983 -0.8797139 -0.21424852 -1.0083874
0000b0 94 b6 02 3e 57 f6 ad 3d 95 94 13 bf 38 1c 05 bf
       0.1276496 0.08494251 -0.57648593 -0.51996183
0000c0 cb ff bb bd 93 77 27 3f 58 da b4 bf f2 4f 64 3e
       -0.09179648 0.6541683 -1.4129133 0.22296122
0000d0 17 5c 5c 3d 30 ac 24 3f db 47 43 bf 74 06 41 bf
       0.05379876 0.6432524 -0.7628152 -0.7540047
0000e0 56 1f b7 3e 19 5c 89 3e 82 e2 00 3e 37 e6 96 3e
       0.35766095 0.26828077 0.12586406 0.29472515
0000f0 a8 85 9b bf 9b 42 5f 3e 9c ae d3 bd 99 de 79 bd
       -1.2150164 0.21802752 -0.103360385 -0.0610033
000100 07 0c 07 c0 ee d7 94 bf 33 2b 52 3e 7f 88 68 3e
       -2.110109 -1.1628397 0.20524292 0.22708319
000110 9d db 8e bf 57 dc f0 bf eb f1 79 3e 33 fc 40 3f
       -1.1160771 -1.8817242 0.2440869 0.75384825
000120 93 6e ef bf 10 34 2c bf d2 ab 16 bf 31 2d 65 c0
       -1.870562 -0.6726694 -0.58855927 -3.5808833
000130 54 e2 c7 3e 8f eb 15 bd 18 ef 71 be 92 93 85 be
       0.39039862 -0.0366016 -0.23626363 -0.2608915
000140 18 8e ae 3e 23 06 3e be fd 91 c9 3f 84 ff cf 3e
       0.34092784 -0.18557028 1.5747677 0.4062463
000150 df 26 ab 3e 6f 5d b1 3e eb 85 a3 3d 97 b4 9e 3f
       0.33428094 0.34641597 0.07984527 1.2398862
000160 f6 20 4a bd 27 83 d4 3e 61 cb 7b 3d 1f 72 11 3f
       -0.04934784 0.4150631 0.061473254 0.5681476
000170 ea 9a 35 3f ac f1 c6 3e 26 25 4a bd 01 34 6b 3e
       0.70939505 0.38856256 -0.049351834 0.22969057
000180 43 40 29 3d d0 58 9a 3d 89 37 cd 3f ed 2b 1f 3e
       0.04132105 0.07536471 1.6032573 0.155441
000190 9e 60 96 3e 56 a5 e5 3e b3 71 06 3f 1a 2d a0 3f
       0.29370588 0.44852704 0.5251724 1.2513764
0001a0 74 62 ab be 43 e4 45 3e c3 39 9e bc 9a 9f 49 3f
       -0.3347355 0.19325356 -0.019314652 0.7875916
0001b0 7c 21 23 3f 54 15 94 3e 3a bb 64 3e e3 8d 32 3e
       0.6372297 0.28922522 0.22337046 0.17436938
0001c0 51 eb 02 3e a4 30 62 3f bd 76 2b bf 32 40 39 be
       0.12785079 0.8835547 -0.66978055 -0.18090895
0001d0 75 8d fc bd 56 91 90 3e a3 61 2f be 47 29 70 bf
       -0.12331668 0.28235883 -0.17127089 -0.93812984
0001e0 18 48 fc 3d bc 02 ab 3d 53 5e fd 3d cd 8f 11 3f
       0.12318438 0.08350131 0.123715065 0.5686005
0001f0 b9 64 fc be 5f be 13 3e b4 47 3f bd 69 60 88 be
       -0.49295595 0.1442809 -0.04669924 -0.26636055

scorer.weight f4 [1, 8]
000000 84 89 0c c0 86 58 c2 bf 06 7d 69 bf ca c6 bf 3f
       -2.1958933 -1.5183265 -0.91206396 1.4982541
000010 66 bd 9c c0 ff c0 8b bf 45 d9 88 bf 47 5e 33 3f
       -4.89812 -1.0918273 -1.0691305 0.7006573
